model.pt (torch, 636777 bytes, 17 tensors)

weight f4 [64, 1, 3, 3]
000000 b6 e9 3c be 02 f6 94 bd 56 fc 75 3e 45 c7 4f 3e
       -0.18448529 -0.07273485 0.2402204 0.20290859
000010 88 8e 00 3e e4 af b9 bc 9e 6f dc 3c de ab ba bd
       0.12554371 -0.022666879 0.026908692 -0.09114812
000020 6c b5 13 be f7 a8 3f be 61 51 c0 bd 23 20 4c be
       -0.14424676 -0.18716799 -0.09390522 -0.19934134
000030 ce 16 07 3e 47 37 4f be a7 16 94 be f4 8d 1c be
       0.13192293 -0.2023593 -0.28923532 -0.15288526
000040 19 41 a7 3d c7 8b 77 3e 89 74 a1 3d 50 c6 ef bd
       0.08166713 0.24174415 0.078835554 -0.11707747
000050 31 51 55 be 36 b0 d0 bd 4c 85 78 be dc 6a 9a be
       -0.20831753 -0.101898596 -0.24269599 -0.30159652
000060 b3 c3 9c 3e 97 d1 4b 3d 08 2d 91 be 1f 3c be bb
       0.30618057 0.049760427 -0.2835467 -0.005805507
000070 eb 46 6f be 9c 46 92 bc 8c d7 eb bc c9 47 aa be
       -0.23366897 -0.017855935 -0.028789304 -0.33257893
000080 1b 77 ee bd 1c 91 55 be 87 51 52 be a6 af 0c 3e
       -0.11643811 -0.20856136 -0.20538913 0.1373888
000090 7b 26 34 3d 8e 4f 1f 3e 08 bb 92 be 3b f6 82 be
       0.04398201 0.15557691 -0.2865832 -0.25578484
0000a0 83 b0 98 be 5e 34 f8 3d 1e 1e 77 bd 3a cf 2b be
       -0.29822168 0.12119363 -0.060331456 -0.1677827
0000b0 1e 2e 6a be a9 3d d7 3d 9f e9 40 be b6 53 a8 3e
       -0.22869155 0.105098076 -0.1883912 0.32876366
0000c0 23 2a 4c be 97 54 80 3e e5 95 94 be b5 01 2b bd
       -0.19937949 0.25064537 -0.2902061 -0.041749675
0000d0 b2 ef 8b be ca b4 8f be 3b a0 bf bd 85 e2 20 be
       -0.2733131 -0.2806762 -0.093567334 -0.1571141
0000e0 8d 28 1c bd d8 a0 27 3d fc df 14 bd f4 55 10 3d
       -0.03812461 0.040924877 -0.03634642 0.03523822
0000f0 87 c4 27 3c 3e 9c bc bd 59 38 b7 3a 82 5b 6a be
       0.010239727 -0.09209488 0.0013978585 -0.2288647
000100 e8 a1 98 3d c3 74 a4 be 6e 28 50 bc ec ff 96 be
       0.07452756 -0.32120332 -0.012704952 -0.29492128
000110 23 35 70 be ed 5b 1c 3e 57 a1 d3 bc 8e a9 a0 3e
       -0.2345777 0.15269442 -0.025833769 0.3137936
000120 dd b7 29 3b 92 62 93 3d ba 14 3b 3d d8 20 c9 3d
       0.0025896945 0.07196535 0.045674063 0.098207176
000130 a4 68 0b be 42 ba 31 3d d4 29 9e bd 9a e2 a5 3e
       -0.13614136 0.04339052 -0.07722822 0.32399446
000140 9b d1 98 bc 95 2a be 3c 29 25 93 bd cb 8d 21 bd
       -0.018654635 0.023213664 -0.07184822 -0.039441865
000150 fd f4 8d be 1d 89 45 be 63 da 96 3e 0b 8f 6f be
       -0.27725974 -0.19290586 0.2946349 -0.2339441
000160 8b 85 51 3e 15 1e 29 3e de 8f d7 3c 0f 87 c8 3c
       0.20461099 0.16515382 0.026313718 0.024478463
000170 c1 2d e1 bd 98 2b a3 be a6 81 d4 3d b5 7f bc 3d
       -0.10995055 -0.31869197 0.10376291 0.09204046
000180 f0 d3 8a be 64 1f 64 be 5c 9f 71 be 04 1e 8e be
       -0.2711482 -0.222776 -0.23595947 -0.27757275
000190 3c ac 3a 3d ae c1 82 be 1d b7 01 3e c0 1a 9b be
       0.04557441 -0.2553839 0.12667508 -0.30293846
0001a0 23 9c a9 be c6 7e 6e 3d d0 30 87 be d8 2f 62 bc
       -0.33126935 0.05822637 -0.26404428 -0.013805352
0001b0 79 9e 2d be c3 f9 67 be 30 f9 93 3e f9 f7 4c 3e
       -0.16954984 -0.2265387 0.28901052 0.20016469
0001c0 7d 5d 61 3e 04 1f 3d 3d d9 39 46 3e de bb 9c be
       0.22008319 0.046172157 0.19358005 -0.3061208
0001d0 27 77 7d 3c 2d b9 9d 3e 03 3b f3 3c 10 b4 87 be
       0.015470303 0.3080534 0.029691225 -0.26504564
0001e0 b7 87 24 3e 01 fc a0 3e 4c 33 58 be 94 7f b7 bc
       0.16067396 0.31442264 -0.21113318 -0.022399701
0001f0 13 df 4a 3d 82 c0 74 3e 39 1e 8b 3e db c3 c9 bd
       0.049529146 0.23901561 0.27171496 -0.098518096
000200 a8 a8 8a 3d 3a 44 41 3e 7c c4 e9 3d 59 f6 61 3e
       0.0677045 0.18873683 0.114144295 0.2206663
000210 40 86 8d 3d 72 a2 33 be 71 1a 15 3e 5d 73 25 3c
       0.06910372 -0.17542437 0.14560868 0.0100983055
000220 a7 3f 58 3c 72 17 fa bc 5c 54 21 be a7 6b 0a 3e
       0.01319877 -0.030528758 -0.15754837 0.13517629
000230 0c b4 5b be ac 45 3f be 95 8f 5e 3e a9 13 0d be
       -0.21455401 -0.18678921 0.2173446 -0.13777031
000240 d3 61 65 be 5d 6a 2e be 7f b1 67 be 96 a4 99 be
       -0.22400598 -0.17032762 -0.22626303 -0.30008382
000250 94 58 df bb 90 b8 92 be 09 31 1b 3e b9 7f 0d 3d
       -0.0068159793 -0.28656435 0.15155424 0.034545634
000260 ec ca f7 bd 23 b5 33 be 60 20 3f bd 94 e7 80 be
       -0.12099251 -0.17549567 -0.046661735 -0.2517668
000270 bd 03 4b bd a8 92 76 3e 7b 90 f7 bd 94 59 b6 bd
       -0.049564112 0.24079382 -0.12088104 -0.089038044
000280 d5 1c 5b be bb 74 b3 bd ac 7c 8c bd a4 33 1c 3e
       -0.21397717 -0.08762499 -0.06859717 0.15254074
000290 57 2f 9c be 14 ac dc 3c c0 a0 15 ba ab 17 a0 3e
       -0.30504867 0.026937522 -0.00057078525 0.31268057
0002a0 c3 b0 fc bd be ef e7 bc 45 87 68 be c6 ad a6 3d
       -0.12338402 -0.02831256 -0.22707851 0.081386134
0002b0 8b 29 3b 3e 80 cf 83 3e 1b b8 e1 bd d0 b0 53 be
       0.18277566 0.25744247 -0.110214435 -0.20672917
0002c0 5c 64 58 3b 44 ad ec bd b5 53 cf 3c 14 14 39 be
       0.0033018803 -0.11556485 0.02530847 -0.18074065
0002d0 64 13 a6 3e 16 50 7d bd 26 f1 64 bd 20 1a 61 bd
       0.3243667 -0.061843954 -0.05589404 -0.054956555
0002e0 47 22 90 3d 90 df a6 3e 51 69 a7 bd 13 3f 64 be
       0.07037788 0.3259244 -0.081743844 -0.22289686
0002f0 f3 c0 b1 bd 29 75 56 be f5 bc d8 3d b9 00 dd 3c
       -0.0867938 -0.2094313 0.10582916 0.026977884
000300 7d 68 9e 3e 8d 37 01 3d 63 b8 a1 3d 9d bb e3 3d
       0.30939093 0.031547118 0.07896497 0.11119769
000310 5b ff a0 3e 2b 84 ca bd 05 b9 eb 3d f7 27 c7 3d
       0.3144482 -0.0988849 0.11509899 0.097244196
000320 4f 49 52 be 9e 64 a9 3e 6d 4d 0a 3d aa ec c6 bd
       -0.20535778 0.33084577 0.033765245 -0.09713109
000330 e8 35 5a be 71 d3 a5 be 58 61 18 3e 26 75 74 3e
       -0.21309626 -0.3238788 0.14880884 0.23872814
000340 ad fa 9b 3e af 8e 42 be cf c6 e7 bd f6 6c 9b 3d
       0.30464688 -0.18999742 -0.113172166 0.07589142
000350 9c 67 a5 3e 92 7f 82 be dd d3 9e be de 59 76 be
       0.3230561 -0.25487953 -0.31021014 -0.24057719
000360 15 d2 a4 be 64 df 9f 3e 33 8e 18 bc cb dc 5c 3e
       -0.3219153 0.3122512 -0.009311247 0.21568601
000370 fc 2f 9f 3e b6 a8 ee 3d 31 c1 1b 3e 51 7a a8 bd
       0.31091297 0.11653273 0.15210415 -0.08226455
000380 b8 25 17 be 4e 56 7a 3e be 76 53 bd a0 a9 94 be
       -0.14760482 0.24446985 -0.051626913 -0.29035664
000390 6f 26 e3 3c 2f 9f b8 bd c1 a3 0d be 82 9c ea bd
       0.027728288 -0.09014737 -0.13831998 -0.11455633
0003a0 14 50 ec 3d b7 d5 f1 bd 6d 50 92 3e 02 93 60 3e
       0.11538711 -0.11808341 0.28576985 0.21931079
0003b0 be 4a a9 3e e2 4a 91 be db 3d b1 bd 74 80 98 be
       0.33064836 -0.28377444 -0.08654376 -0.29785502
0003c0 6e 8d 96 3d da 20 93 3d 69 80 ce 3d fd 89 67 3e
       0.07351194 0.07184 0.10083086 0.22611232
0003d0 5d 4f 03 be c2 bc 74 3e fe cd b9 bd 6f 4b 64 3e
       -0.12823243 0.2390013 -0.09072493 0.222944
0003e0 47 3f be bc 89 10 14 be 6a 5e a3 bd 5f 95 d8 3d
       -0.023223532 -0.14459433 -0.079769924 0.10575365
0003f0 6a 96 05 3d a3 33 77 be 23 ad 73 be 25 62 44 bd
       0.03261415 -0.24140792 -0.23796515 -0.04794516

weight f4 [64]
000000 eb ff 7f 3f fe b8 7f 3f 01 0e 80 3f 1b 29 80 3f
       0.99999875 0.9989165 1.0004274 1.0012544
000010 83 05 80 3f 7b af 7f 3f 3c e8 7f 3f 21 e8 7f 3f
       1.0001682 0.99877137 0.99963737 0.99963576
000020 1e 10 80 3f 0c c5 7f 3f 55 03 80 3f be 16 80 3f
       1.0004919 0.99910045 1.0001017 1.000694
000030 0c fa 7f 3f 8d 09 80 3f ba 20 80 3f ca d3 7f 3f
       0.99990916 1.0002915 1.0009987 0.9993254
000040 2c d1 7f 3f ab 1d 80 3f da 08 80 3f 14 f7 7f 3f
       0.99928546 1.0009054 1.0002701 0.99986386
000050 a3 00 80 3f b9 04 80 3f f3 da 7f 3f e9 f4 7f 3f
       1.0000194 1.0001441 0.99943465 0.9998308
000060 18 e2 7f 3f d4 f8 7f 3f d8 fb 7f 3f 0c 10 80 3f
       0.99954367 0.99989057 0.9999366 1.0004897
000070 e5 02 80 3f 80 18 80 3f b3 c6 7f 3f 5e f0 7f 3f
       1.0000883 1.0007477 0.99912566 0.99976146
000080 9d 05 80 3f 1d d4 7f 3f 49 13 80 3f 3a 00 80 3f
       1.0001713 0.99933034 1.0005885 1.0000069
000090 93 28 80 3f f3 2e 80 3f 4a c1 7f 3f 9c ba 7f 3f
       1.0012382 1.0014328 0.9990431 0.9989412
0000a0 31 df 7f 3f ac fe 7f 3f 9c 18 80 3f ae e1 7f 3f
       0.9994994 0.99997973 1.000751 0.99953735
0000b0 1f d4 7f 3f b5 c8 7f 3f 57 06 80 3f 9c 0b 80 3f
       0.99933046 0.9991563 1.0001935 1.0003543
0000c0 b4 10 80 3f 46 b6 7f 3f 54 11 80 3f 3a 03 80 3f
       1.0005097 0.998875 1.0005288 1.0000985
0000d0 5e fe 7f 3f 0a df 7f 3f 07 19 80 3f 65 08 80 3f
       0.9999751 0.99949706 1.0007638 1.0002562
0000e0 4d db 7f 3f 52 00 80 3f c3 04 80 3f 47 1c 80 3f
       0.99944 1.0000098 1.0001453 1.000863
0000f0 c7 ee 7f 3f 07 d3 7f 3f e7 07 80 3f 62 d4 7f 3f
       0.9997372 0.9993138 1.0002412 0.99933445

bias f4 [64]
000000 1f ac 47 ba 9e ab 47 ba 52 7d c7 39 4c d9 62 3a
       -0.00076168956 -0.00076168205 0.0003804961 0.00086535956
000010 6b 1f 7c 3a 29 2f 73 ba ce bd 30 ba 4a 18 98 ba
       0.0009617719 -0.0009276742 -0.000674215 -0.0011603918
000020 6d c6 34 ba f9 15 7e ba d5 09 df b8 65 f4 24 b7
       -0.0006896023 -0.0009692605 -0.000106353 -9.832064e-06
000030 d5 4a 06 ba 6e d4 81 39 52 ee 6b 39 20 2f bd 39
       -0.0005122845 0.0002476307 0.00022500128 0.00036084
000040 5d 31 83 ba df 14 c8 39 d5 4a 69 b9 42 11 77 ba
       -0.0010009218 0.00038162523 -0.00022248489 -0.0009424874
000050 94 7d 53 b9 05 7d 7d b9 2f 00 74 b9 ba 6f 74 3a
       -0.0002016931 -0.00024174534 -0.00023269722 0.000932451
000060 bf 2a 99 ba 7a d7 b7 37 c7 5f e7 39 28 19 6f 39
       -0.0011685713 2.1915639e-05 0.00044131113 0.00022802188
000070 44 ef 14 39 de 46 7f 3a cb 35 8d b8 4c 13 b3 38
       0.00014203513 0.0009738038 -6.733424e-05 8.5389795e-05
000080 db 89 aa b9 61 04 50 ba b9 6a 02 ba e4 73 e9 37
       -0.00032527637 -0.0007935223 -0.00049750094 2.782973e-05
000090 e4 e5 de 3a 90 0f 96 3a 17 f7 fe b9 60 20 4a ba
       0.0017005769 0.001144873 -0.00048630752 -0.0007710513
0000a0 da e1 50 39 ed 0e c2 b8 32 36 dc 38 f5 8b f5 37
       0.00019920562 -9.253421e-05 0.00010500512 2.9271449e-05
0000b0 c8 17 1f 3a 8b 4f 79 ba 6d cc cd 39 fc 09 fa 39
       0.00060689123 -0.0009510449 0.00039252956 0.00047691155
0000c0 50 0d 5d 3a 1d 2a 3c ba ca b2 a3 3a 43 0c 78 ba
       0.00084324647 -0.0007177906 0.0012489196 -0.00094622764
0000d0 d9 e0 b2 b8 52 98 60 ba cd 67 28 3a 22 cd f5 b8
       -8.5295826e-05 -0.00085676194 0.0006424159 -0.00011720719
0000e0 c3 e0 b1 b9 f3 70 54 ba 98 66 f1 b8 1a 1c 47 3a
       -0.0003392753 -0.0008103989 -0.00011510885 0.0007595435
0000f0 37 7f 64 b9 75 6f 8c ba ce 16 e2 38 d6 fe 38 b9
       -0.00021791166 -0.0010714369 0.000107807675 -0.00017642541

running_mean f4 [64]
000000 f2 d8 28 3d 16 8e ae be 98 08 d6 be 20 c0 03 bf
       0.04122252 -0.34092778 -0.41803432 -0.51465034
000010 9c 63 fd be 65 61 98 be f1 07 2b be 86 fb 96 be
       -0.49490058 -0.29761806 -0.16702248 -0.29488772
000020 3e bb 37 3e fe c0 85 bd 3a b9 eb be 59 ee 1d bf
       0.17942521 -0.06530951 -0.46039754 -0.61691815
000030 f3 7e 08 3e 0f 14 9d 3e 0d ba d0 3e 32 57 35 be
       0.13329677 0.30679366 0.40766945 -0.17709044
000040 37 59 15 bf 26 bd cc be 06 48 05 be 2d f0 02 bd
       -0.58339256 -0.3998806 -0.13015756 -0.03196733
000050 e7 af a6 3d 45 78 ae 3e ce 7f 68 bd e1 e0 a4 bd
       0.081390195 0.34076133 -0.05676251 -0.08050705
000060 69 02 8f 3e 20 c2 56 be 25 ad 53 3e c8 75 2a 3e
       0.27931526 -0.2097249 0.20671518 0.16646492
000070 d3 46 eb bd 14 df 91 be 6e fd 0a be 45 16 14 bf
       -0.11488118 -0.28490508 -0.13573238 -0.5784648
000080 56 db e7 3e 13 a4 95 3e 1a 1f 2f 3e c7 db c1 3d
       0.45284528 0.2922674 0.17101708 0.09465747
000090 54 fc cf 3d 7e 82 ba 3e 3a 8f 48 3e 93 03 05 3f
       0.1015555 0.36427683 0.19585887 0.5195858
0000a0 b1 64 de 3e f0 7a 2a be 08 d0 42 bd 24 d7 33 be
       0.43436196 -0.1664846 -0.047561675 -0.17562538
0000b0 38 f1 1a be 4d 61 c4 bd 96 2e 34 3e 83 16 86 be
       -0.1513108 -0.09588871 0.17595896 -0.2618905
0000c0 72 07 40 3d 9e 93 1f be ec 2c a7 bb 23 71 14 bf
       0.0468821 -0.15583655 -0.0051017907 -0.5798513
0000d0 62 48 74 3e 45 ec 0c be d1 72 dc 3d 9d 37 d9 be
       0.23855737 -0.13762005 0.10764087 -0.42425242
0000e0 c1 35 b9 bd b4 07 37 3e 34 0a 77 3d e8 2e 61 be
       -0.09043456 0.17874032 0.060312465 -0.2199055
0000f0 82 e8 97 be 3a 7c a4 3e e5 31 14 3f 80 23 61 be
       -0.29669577 0.32126027 0.57888633 -0.21986198

running_var f4 [64]
000000 82 b2 c1 3c 6b 08 65 3d 9f d3 99 3d 82 66 c3 3d
       0.02364469 0.05591623 0.07511067 0.09541036
000010 1a 83 b8 3d 9c 4a 4e 3d 9a 47 f9 3c fe 37 4c 3d
       0.09009381 0.05036412 0.03042965 0.049858086
000020 d2 c9 00 3d 63 c3 e0 3c 34 6e a9 3d 30 11 02 3e
       0.03144247 0.027436918 0.08272973 0.12701869
000030 76 e5 ea 3c 5b 1b 51 3d 6c 11 8c 3d b9 40 02 3d
       0.028673869 0.05105148 0.068392605 0.031800006
000040 c6 45 ef 3d 6d 8d 87 3d 5a 23 e4 3c 4f 6a da 3c
       0.1168323 0.06618772 0.027848888 0.02666202
000050 a9 f7 d7 3c 87 60 64 3d f1 49 d0 3c 35 24 fd 3c
       0.02636321 0.05575612 0.025425883 0.030901054
000060 d1 a2 39 3d 6c a7 15 3d bd 21 1c 3d 01 a1 00 3d
       0.04532129 0.03653662 0.038118113 0.031403545
000070 0a 40 f2 3c 19 81 3a 3d 49 48 ea 3c 03 b1 ec 3d
       0.029571552 0.045533273 0.028598921 0.115572
000080 90 c0 a2 3d cf fc 4d 3d 86 60 00 3d 16 1e cf 3c
       0.07946885 0.050289925 0.031342052 0.0252829
000090 20 5f de 3c 20 19 72 3d 97 76 13 3d 0a 13 c9 3d
       0.027144969 0.059105992 0.036001768 0.098180845
0000a0 d0 79 99 3d da 98 02 3d f6 bc eb 3c 7e 2f 03 3d
       0.07493937 0.03188405 0.028776627 0.032027714
0000b0 10 6a 08 3d 5e 26 e5 3c c4 90 05 3d c9 da 2c 3d
       0.033304274 0.027972396 0.032608762 0.042200837
0000c0 34 51 d4 3c 00 2f 00 3d 54 05 fb 3c 35 38 e9 3d
       0.025917627 0.031294823 0.03064219 0.11387674
0000d0 69 73 23 3d 02 b1 ec 3c 79 97 d9 3c 87 ea 92 3d
       0.039904986 0.028892998 0.026561486 0.07173639
0000e0 a4 4f d8 3c 19 72 11 3d d1 1c c6 3c da 5e 17 3d
       0.026405163 0.035509203 0.024183663 0.036955692
0000f0 a4 f0 47 3d 39 cb 53 3d 55 59 ea 3d fa 7e 1b 3d
       0.048813477 0.05170748 0.1144282 0.03796289

weight f4 [64, 64, 3, 3]
000000 d9 78 16 bb 26 86 48 3b 8a b7 da 3b 5e 34 f1 bc
       -0.0022960214 0.0030597537 0.0066747116 -0.029443916
000010 63 97 60 bc ab 4b d8 3c 98 72 16 3d 50 fb 03 3c
       -0.013707968 0.026403269 0.03673038 0.008055523
000020 2d 50 54 3c f3 f6 b0 ba 52 11 8b 3c 85 60 16 bc
       0.0129585685 -0.0013501331 0.016976032 -0.0091782855
000030 2d e1 9b bc 39 a9 08 3d 43 45 11 3c 61 46 f0 bb
       -0.01902827 0.03336451 0.008866611 -0.0073326086
000040 fa 83 d9 bb 4c e6 92 3b 70 41 cd 3c 25 4b 92 bc
       -0.0066380473 0.00448302 0.025055617 -0.017858097
000050 fa ba 17 bd 1f d2 40 3c 68 19 a4 bc 80 1b 9b 3c
       -0.03704355 0.011768847 -0.020031646 0.018934011
000060 e5 90 a2 bc 7c 8e ad bc aa fb 81 3b f1 32 fa bb
       -0.019844482 -0.021186106 0.0039667683 -0.007635467
000070 78 23 9c 3c 7c 1a 44 3c 16 25 53 bb 07 6d 28 bd
       0.019059882 0.011969205 -0.003221815 -0.0411196
000080 80 ee d8 bc e2 90 a2 bc cd 5f 2b bc ef b0 08 3d
       -0.026480913 -0.019844476 -0.010459852 0.033371862
000090 09 e2 f7 bc 10 4e 4d bc 64 15 03 3c fa 2e 0e bb
       -0.03025915 -0.012530819 0.008000705 -0.002169548
0000a0 ab f5 08 3d 25 fb 21 3d a4 75 f1 3c 7c b8 ce bb
       0.033437412 0.03954615 0.02947504 -0.0063086133
0000b0 4a a3 43 3c 6c 0f fa 3c cb 41 2b bc a0 b5 59 bc
       0.011940787 0.030524932 -0.010452698 -0.013287932
0000c0 a7 27 23 3c 9b b0 fc bc e5 8c 84 bc 44 1f 18 3c
       0.009958184 -0.03084593 -0.016180465 0.009284798
0000d0 bd 02 f1 bc 58 2b ae bc 07 fe 4f 39 30 d0 6d 3c
       -0.029420251 -0.021260902 0.00019835691 0.014514968
0000e0 eb a1 86 3c b1 d7 ce bc 94 c1 2c bc c0 49 61 bc
       0.01643463 -0.025249334 -0.0105441995 -0.0137504935
0000f0 36 62 9a bc 91 2c 7e 3c 9d e0 ce bc 7d 3e 90 bb
       -0.018845659 0.015513555 -0.025253588 -0.0044019804
000100 c8 aa c7 bc 9f cb 86 3b aa a6 b6 3c 6a 26 ea 3c
       -0.024373427 0.004113629 0.022296268 0.02858277
000110 4c 0f 7c 39 1e fc 6e bc 39 34 1c bc 30 13 72 3c
       0.00024038291 -0.014586477 -0.009533935 0.0147750825
000120 35 ff 64 3c fa 31 75 3b 76 29 bb bc d4 10 7d bc
       0.013976862 0.0037413822 -0.022846919 -0.015445907
000130 6b 04 be 3c 9c 3b c3 3b aa 26 4f bc d2 d6 24 3d
       0.023195466 0.0059580337 -0.012643496 0.04024393
000140 43 1b 10 3d 90 09 88 3c f4 74 23 3a 0e b3 29 3d
       0.03518225 0.016606122 0.0006235384 0.041430525
000150 de 9e 2b bd 4d 16 05 bd 81 2b 13 bd 32 f0 2a bd
       -0.041899554 -0.03249197 -0.03593016 -0.041732974
000160 41 05 81 bb e1 d7 aa bc c7 09 0a bd 98 56 87 ba
       -0.003937394 -0.020854892 -0.03370073 -0.001032549
000170 a0 1c 04 bd 4b fe 65 bc 9d f4 03 bd 94 95 d2 bc
       -0.03225386 -0.014037679 -0.032215703 -0.02570609
000180 85 72 2f bb 75 1d 20 3d 97 4d 5f bc 82 d1 17 bd
       -0.002677114 0.039090592 -0.013629339 -0.037065037
000190 47 f3 ea b9 08 b4 03 bd c3 02 06 bd e7 c5 fd bb
       -0.00044813214 -0.032154113 -0.032717478 -0.007744539
0001a0 ec 96 02 3d 91 a6 0a 3d 24 06 04 bd 35 b2 f2 bc
       0.03188221 0.033850256 -0.03223242 -0.029625991
0001b0 09 30 22 bd a8 64 43 bc f4 18 11 bc 31 16 24 bc
       -0.03959659 -0.011925854 -0.008856047 -0.0100150565
0001c0 cc 14 20 bc 38 25 68 bc 33 c6 61 bc 16 4e e1 3c
       -0.009770583 -0.01416903 -0.0137801645 0.027503055
0001d0 1a b5 6c bc de f1 46 bc 0b 10 f6 bc d8 38 d5 bc
       -0.014447475 -0.012142627 -0.030036947 -0.026028082
0001e0 fd 95 bf bc a1 e2 5a 3c f3 1d 95 bc 72 73 13 3c
       -0.02338695 0.013359697 -0.018202757 0.008999692
0001f0 a2 77 ab bc 9a 0a 9d bb 7a 5f 66 bc 2f cd 14 3c
       -0.020931069 -0.0047925236 -0.014060849 0.009082123
000200 fb b2 a7 3b 7d 88 c0 ba 91 7f 0a 3d 44 11 d5 3c
       0.0051177717 -0.0014689114 0.033813063 0.02600921
000210 00 cc 21 bd ab 86 f6 3c 12 35 6c bc 71 7f 01 bd
       -0.03950119 0.030093512 -0.01441695 -0.03161568
000220 d3 89 0f 3c 25 c5 40 3c cb 36 48 bb 86 85 62 3c
       0.008760887 0.011765753 -0.0030550237 0.01382578
000230 35 44 a9 3b 25 93 14 bc 91 c9 56 3c d2 b3 bf 3c
       0.0051656016 -0.009068285 0.013109581 0.023401175
000240 a6 c8 dc 3c 7c e6 6f 3b 43 23 a5 3c a4 a2 49 bc
       0.026951145 0.0036605885 0.020158416 -0.012306843
000250 3b 5a 98 3b 2d 67 08 3d e4 e2 45 bc 47 11 83 3c
       0.004649428 0.03330152 -0.012078021 0.01599945
000260 bb 6b 15 3d 0d c0 3b 3b fa 7d dc 3b df 00 cb bc
       0.036479693 0.0028648407 0.0067288848 -0.024780689
000270 bd 0b d7 ba fd 00 ed 3c c8 6b 9d bc 10 7b 0e bd
       -0.0016406697 0.028931135 -0.019216433 -0.03478533
000280 5e 84 5f bb 4c 90 0a bc 69 8b b0 3b cc ad 06 3d
       -0.0034105997 -0.008457255 0.0053877127 0.03288059
000290 41 a3 b1 bc 88 19 fd bc 3d 2d 91 bb 98 b2 26 3d
       -0.02168429 -0.030895963 -0.0044304417 0.040697664
0002a0 28 58 a9 3c 69 17 00 3d ab 15 0f 3d 22 8a 11 3d
       0.020671919 0.031272326 0.034932774 0.035532124
0002b0 e9 b8 b5 bc 2c 30 1f bb bc 29 1e bd 0b 80 26 bd
       -0.022182899 -0.0024290187 -0.03861402 -0.040649455
0002c0 10 f4 1b bc 34 13 75 3c 1f a3 16 3d 69 58 23 3d
       -0.009518638 0.014958192 0.03677666 0.039879236
0002d0 13 51 2a bb 8c ea 65 3c 5e 58 9d 3c 6b f0 27 bd
       -0.0025988265 0.014032971 0.019207176 -0.041000765
0002e0 f0 12 05 bc 1a a1 37 bc 8f 4c 13 3d 6c 93 1c 3d
       -0.008122191 -0.011207843 0.035961684 0.03822653
0002f0 f5 6d 30 3b 0e ac 19 3d 60 19 87 bc 12 38 8b 3c
       0.0026921008 0.0375176 -0.016491592 0.01699451
000300 12 56 fd ba 3e 89 a9 3c f5 f0 f7 bc 59 28 b3 bc
       -0.0019328019 0.020695325 -0.030266264 -0.021869825
000310 1e 00 fe 3c 3d 0b 64 3b 78 f7 3f 3c 95 17 8a 3b
       0.031005915 0.0034796738 0.011716716 0.004214237
000320 18 91 86 3c 25 2c b6 3c 37 51 19 bd 25 f0 90 3c
       0.016426608 0.022237847 -0.037430968 0.017692635
000330 29 1c cb 3c 50 b9 1c 3d ec fb 8a bc df fb 29 3d
       0.024793701 0.038262665 -0.016965829 0.04149997
000340 3d cf 85 bc 1b 5f 1a 3d ed fa 1f bd 9d 68 85 bc
       -0.01633417 0.037688356 -0.03905766 -0.016285235
000350 98 29 26 bd b4 f8 ed 3c 0c 57 90 bc 43 83 2f 3c
       -0.04056701 0.029049255 -0.017619632 0.010712448
000360 8e 39 92 3c f1 79 b1 3c 6c c2 22 3d 28 42 b9 3c
       0.01784971 0.021664592 0.039736196 0.022614554
000370 11 50 0b bd 1a 75 e1 3c 71 1a 1c bd 27 af 1b 3c
       -0.034011904 0.027521659 -0.038111154 0.009502209
000380 26 da 11 3d dc 34 67 3a a2 c8 db 3c 72 f3 b7 3b
       0.035608433 0.00088198273 0.026829068 0.0056137377
000390 eb 8e 7a 3c 8e 01 1e bc 5c 86 0c 3c ab 91 14 bd
       0.015292863 -0.009643925 0.008576956 -0.036271732
0003a0 0f 80 f5 3c de e2 00 bd e3 78 ff 3c 0f 57 91 3c
       0.02996829 -0.031466357 0.031185573 0.017741708
0003b0 92 09 13 3d a0 40 f9 39 23 3b 17 3d d9 40 25 bb
       0.0358978 0.0004754113 0.03692163 -0.0025215654
0003c0 9f 09 a1 bc e3 f4 51 bb d0 1c 89 bc 21 6b 96 3c
       -0.019657908 -0.0032036833 -0.016737372 0.01836163
0003d0 70 2b 4f bc 11 13 03 3d 68 f4 c5 bc ef 17 5c bc
       -0.012644634 0.032000605 -0.024164394 -0.013433441
0003e0 f6 18 86 bb 6a 16 1c bd 3a f3 17 3d 3a b7 90 3c
       -0.004092331 -0.038107313 0.037097193 0.017665494
0003f0 32 2b 14 bd 78 c4 93 3c d1 a0 25 3d dd 54 9c bc
       -0.036174007 0.01803802 0.04043657 -0.019083435

weight f4 [64]
000000 10 e1 7f 3f e8 e8 7f 3f fe c9 7f 3f a7 c4 7f 3f
       0.99952793 0.9996476 0.9991759 0.9990944
000010 30 07 80 3f 22 e3 7f 3f 2b fc 7f 3f 9e e9 7f 3f
       1.0002193 0.9995595 0.9999415 0.99965847
000020 1c ea 7f 3f 8a 04 80 3f 70 d4 7f 3f 09 b0 7f 3f
       0.999666 1.0001385 0.9993353 0.99877983
000030 dc 2b 80 3f ec b5 7f 3f a7 ff 7f 3f 2f f1 7f 3f
       1.0013385 0.99886966 0.9999947 0.9997739
000040 f1 17 80 3f 1e d0 7f 3f bf e7 7f 3f 36 0f 80 3f
       1.0007306 0.99926937 0.9996299 1.0004642
000050 a6 96 7f 3f b5 14 80 3f 92 13 80 3f f2 1f 80 3f
       0.99839246 1.0006319 1.0005972 1.0009749
000060 c0 bc 7f 3f f6 17 80 3f 6e 0e 80 3f c5 c4 7f 3f
       0.99897385 1.0007312 1.0004404 0.9990962
000070 eb 02 80 3f 39 f1 7f 3f fc 0d 80 3f 93 e6 7f 3f
       1.000089 0.9997745 1.0004268 0.99961203
000080 9a 1f 80 3f 80 25 80 3f 3e 04 80 3f f2 d7 7f 3f
       1.0009644 1.0011444 1.0001295 0.9993888
000090 9c 0f 80 3f 05 13 80 3f 47 1c 80 3f 70 f9 7f 3f
       1.0004764 1.0005804 1.000863 0.99989986
0000a0 2f 0b 80 3f 82 29 80 3f e6 29 80 3f cf 10 80 3f
       1.0003413 1.0012667 1.0012786 1.000513
0000b0 6c bf 7f 3f de dc 7f 3f 2c 0d 80 3f 25 1c 80 3f
       0.9990146 0.9994639 1.000402 1.0008589
0000c0 0e 3a 80 3f 04 12 80 3f be fa 7f 3f d9 00 80 3f
       1.0017717 1.0005498 0.9999198 1.0000259
0000d0 99 10 80 3f 4a bd 7f 3f e6 f5 7f 3f 30 10 80 3f
       1.0005065 0.9989821 0.99984586 1.000494
0000e0 29 01 80 3f 7b 14 80 3f 0a d9 7f 3f 86 18 80 3f
       1.0000354 1.000625 0.9994055 1.0007484
0000f0 eb c8 7f 3f 0d 96 7f 3f 68 d5 7f 3f 34 ea 7f 3f
       0.9991595 0.99838334 0.9993501 0.9996674

bias f4 [64]
000000 20 e6 95 ba 2e 13 ce b9 2a b5 98 ba 8e 76 0a ba
       -0.001143638 -0.00039305672 -0.0011650671 -0.0005281948
000010 ea 70 30 b9 82 11 bb ba a5 7b 3a b9 ea 9c 79 b9
       -0.00016826732 -0.0014272186 -0.00017784403 -0.00023804946
000020 a1 01 b1 39 19 ca 89 b8 10 c4 28 b9 f1 9e fd ba
       0.00033761284 -6.570313e-05 -0.00016094767 -0.0019349736
000030 2a d4 35 3a 95 c4 97 ba 6e d9 52 39 ee 42 e7 39
       0.0006936217 -0.0011578972 0.0002010816 0.0004410962
000040 14 3c 04 ba 74 0e ad 39 e2 0a 05 ba 37 59 55 b8
       -0.0005044353 0.000330079 -0.0005075169 -5.0866245e-05
000050 80 8d 3e ba 98 ee be ba d5 cd 42 ba 8f 12 be 39
       -0.000726901 -0.0014566956 -0.0007431184 0.0003625345
000060 fe 3a 3e ba 24 de 54 3a b6 09 3c ba 15 6d dd ba
       -0.00072567153 0.000812026 -0.0007173078 -0.0016893471
000070 dd b6 01 3a cf 28 44 3a 78 78 13 3a 80 0b bc 39
       0.0004948208 0.00074828876 0.0005625556 0.00035866722
000080 af 7e af 3a bb b1 5e 3a b8 b2 1a b8 5e 7d 6f 39
       0.0013389195 0.0008495112 -3.6882906e-05 0.00022839519
000090 cb 96 75 b9 a7 2c 9d 39 b9 b1 49 3a f4 a7 7b 39
       -0.00023421196 0.00029978642 0.0007694024 0.00023999793
0000a0 67 01 e6 38 72 3b 60 3a 42 6c 66 39 70 b6 43 3a
       0.00010967516 0.000855378 0.00021974838 0.0007465845
0000b0 0f 02 b6 ba d1 a4 e2 ba 5a 6e b4 3a 21 fb 46 3a
       -0.0013886112 -0.0017291551 0.0013765797 0.0007590522
0000c0 a2 e9 a4 3a 5c fe 89 3a 03 7b 3e 3a 20 9d 95 ba
       0.0012581835 0.0010528076 0.0007266255 -0.0011414625
0000d0 ce f9 cf 3a 1d d4 e1 ba 9b 6a a4 39 1e aa 1f 3a
       0.0015867294 -0.0017229352 0.00031359945 0.0006090718
0000e0 1e 52 1a 3a 7b a9 18 3a cc f7 82 b9 13 a7 39 3a
       0.000588687 0.00058235944 -0.00024980155 0.0007082086
0000f0 b6 2c 20 38 71 25 5a ba 86 7d 25 ba f9 f3 c4 b9
       3.8188613e-05 -0.0008321619 -0.0006312955 -0.00037565807

running_mean f4 [64]
000000 b8 c6 4b 3e 45 11 25 bf 06 98 7a 3e f0 b4 b3 bd
       0.19900024 -0.64479476 0.24472055 -0.087747455
000010 e2 9a 6d 3e 42 bd 95 3e 1c 9b 83 bc 51 fa 10 3d
       0.23203614 0.29245955 -0.016065173 0.03539497
000020 6d 9d 97 be ca 81 dc be 61 61 97 3d d2 fb 8f 3e
       -0.29612294 -0.4306777 0.073916204 0.2812181
000030 c2 49 c8 3e 3b df 93 3e bd 8b 25 bf 66 bf c1 3e
       0.39118773 0.2888125 -0.6466635 0.37841338
000040 e7 84 ae 3c d9 88 46 be c4 e9 17 3e 5b e0 aa 3e
       0.021303607 -0.1938814 0.14835268 0.33374295
000050 44 c7 a6 3d a4 47 1e 3e 78 e4 5f 3e 9c 53 20 3e
       0.08143476 0.15457016 0.21864498 0.15656894
000060 e8 5d 37 be d9 00 25 be 9c 3c 0a bc c5 d3 ab be
       -0.17906916 -0.16113605 -0.008437302 -0.33560005
000070 c4 73 1c be 52 df 75 bd f7 46 89 be a9 9e 24 3e
       -0.15278536 -0.060027428 -0.26811954 0.16076149
000080 0b a1 f1 3e b2 d4 62 3e f4 85 f2 3c 9a 89 19 3d
       0.4719318 0.2215145 0.02960489 0.037484743
000090 a1 f1 87 3d 6f 87 b5 3e 1b d6 55 3e a5 09 1f be
       0.06637884 0.3545489 0.20882456 -0.15531023
0000a0 2b 3b c5 be 60 e1 f7 3c 81 22 de bc 48 15 0d bd
       -0.38521704 0.030258834 -0.027116062 -0.034444124
0000b0 5e 0c 04 3d 2d 5a 99 3e ea 79 16 3f e0 8c 57 be
       0.032238357 0.2995161 0.58779776 -0.21049833
0000c0 9c 31 d7 3e 7d 83 ac be 63 17 08 bd bd 54 20 3e
       0.42030036 -0.33694068 -0.03322543 0.15657325
0000d0 26 3c 55 be 39 0d b5 3d bc e4 69 3d ff 6d ec 3d
       -0.20823726 0.08840413 0.057102904 0.115444176
0000e0 c3 38 90 3d 02 71 fa 3e f3 7b 96 be 1f 8e ae bd
       0.070420764 0.48914343 -0.2939144 -0.08523201
0000f0 f0 0a b2 3e 18 d2 0e 3f 6e ae a5 3d 13 e8 a6 3d
       0.3477397 0.5578933 0.080899104 0.081497334

running_var f4 [64]
000000 19 b4 9b 3e 67 75 9f 3e cc 6d ff 3d 6a b1 14 3e
       0.3041084 0.31144258 0.12472114 0.14520803
000010 24 6b 9d 3d 1e 91 93 3d 50 2a d4 3d df 26 34 3e
       0.07686451 0.07205413 0.10359633 0.17592953
000020 2a 08 17 3e 1d 7a 19 3e 06 f3 a4 3d 42 4f 35 3e
       0.14749208 0.14987989 0.080541655 0.17706016
000030 45 2e b4 3d 75 ec c6 3d c4 25 24 3e b1 b6 09 3e
       0.08797888 0.09713069 0.16030031 0.13448597
000040 d3 28 04 3e 0f e5 86 3e 49 20 32 3e 10 a4 36 3e
       0.12906198 0.26346633 0.17395128 0.17836022
000050 c3 e4 f1 3d bd b6 a5 3d e1 b2 e1 3d 9a 96 29 3e
       0.11811211 0.08091495 0.110204466 0.16561356
000060 9d b5 2d 3e aa 9e 9a 3d 58 ed 46 3e 7e 11 af 3d
       0.16963811 0.07549794 0.19426477 0.08548258
000070 c6 f1 1b 3e bb c5 8b 3e a2 50 fd 3d 01 99 f2 3d
       0.15228948 0.27299294 0.12368895 0.118455894
000080 98 0d c8 3d 4d 8b 13 3e 74 3f 02 3e e8 6b be 3d
       0.09768218 0.14408608 0.12719518 0.09297925
000090 f9 75 fe 3d eb f5 ed 3d 78 2d 2c 3e 92 eb ac 3d
       0.12424845 0.11619171 0.1681422 0.08443369
0000a0 72 98 fb 3d c0 b8 74 3e 64 36 21 3e ab d4 45 3e
       0.12284936 0.23898602 0.15743405 0.19319408
0000b0 99 57 09 3f 21 52 b1 3d ac 4f 60 3e 60 1a 4b 3e
       0.5364929 0.08658243 0.21905392 0.1983428
0000c0 86 11 71 3e 15 83 5d 3e 84 13 d3 3d 27 b0 23 3e
       0.23541841 0.21632035 0.10306457 0.15985166
0000d0 94 5c f6 3d fd 86 a8 3d 0a ca 9e 3d 13 2e 83 3e
       0.120293766 0.08228872 0.0775338 0.2562109
0000e0 95 0a 4b 3e 2d ac 39 3e c1 e2 d4 3d be 59 38 3e
       0.19828255 0.18132086 0.103948124 0.18002984
0000f0 fc 6e 14 3e fb 9e 12 3e f4 ca 08 3e 1c 7f 02 3e
       0.14495462 0.14318459 0.1335867 0.12743801

weight f4 [64, 64, 3, 3]
000000 c5 8c f3 3c 4d c4 98 bc 4d ea 27 bd 3d 16 f9 3c
       0.02973021 -0.018648291 -0.04099493 0.030406112
000010 d1 1b b0 3b 4d 19 4d 3c fa 4f 96 3c 47 5d f2 bc
       0.0053744097 0.012518239 0.018348683 -0.029585494
000020 b7 89 2a bb 87 60 0e bc 38 a4 0d 3d 51 e0 03 3d
       -0.0026022026 -0.008690006 0.03458044 0.032196347
000030 ec d2 05 3d 35 46 ee bc 36 e6 96 bc 6e 64 ad bc
       0.032671854 -0.029086212 -0.01842032 -0.021166053
000040 aa 94 84 3c 5a 7d 1b 3c d6 40 f7 3c 9d 26 2c bd
       0.01618417 0.009490335 0.030182283 -0.042029012
000050 b4 9f 8c 3c dc 08 a3 bc ac a4 0a 3d 61 ab 1e 3d
       0.017165996 -0.019901685 0.03384845 0.03873766
000060 6a 52 81 bc de 53 e2 3c fc e0 31 3c ba 5f dd 3c
       -0.015786368 0.027627882 0.010856863 0.027023185
000070 d2 83 c2 3c cf 29 9e bb a7 c5 0d 3c 66 0e 70 3c
       0.023744497 -0.0048267613 0.008653081 0.01465187
000080 83 f3 5e bc 51 c2 83 bc 34 ab d6 b9 18 70 9f bb
       -0.013607862 -0.016083868 -0.00040944817 -0.0048656575
000090 7b f3 98 bc 0a 06 0d 3b 83 5f 03 bd a7 77 d1 3c
       -0.018670788 0.0021518492 -0.03207351 0.02556975
0000a0 cd e5 f4 bc 93 98 9c bb f5 3f 64 bb 28 a1 52 bc
       -0.029894734 -0.0047789305 -0.003482816 -0.012855805
0000b0 71 b4 b5 bb 61 83 c0 bc 4b 21 dc 3b 47 f1 db bc
       -0.005545192 -0.023500146 0.006717836 -0.026848448
0000c0 28 56 e0 3c 41 60 a8 3c 26 49 b7 bc 44 ea ae bc
       0.027384833 0.02055371 -0.022373747 -0.02135194
0000d0 f0 70 f8 bc ec 3b a8 bc d8 7a ca bc d9 07 58 bc
       -0.03032729 -0.020536385 -0.02471678 -0.013185465
0000e0 c4 b0 92 3c b9 49 5e bc bb 16 22 3d a1 f7 98 bc
       0.017906554 -0.013567382 0.03957246 -0.018672766
0000f0 5b 93 19 bd 19 a3 98 3c 92 d5 06 3d 82 28 6a 3c
       -0.037494045 0.018632459 0.03291852 0.014291884
000100 95 d3 58 bc 6d bc fa bc c6 17 22 3d f7 ae 90 3b
       -0.013234039 -0.030607427 0.039573453 0.0044153887
000110 9a 97 2f bc 42 e2 88 bb 23 fc 91 bb 88 0c 89 3b
       -0.010717297 -0.0041773627 -0.004455106 0.004182402
000120 36 9e 02 bd 3b 61 00 3c 27 fa 9e bb 76 3f bd 3c
       -0.031889163 0.007835682 -0.004851598 0.02310155
000130 fc cc c2 bb 23 1e dc 3c 12 d8 ba bc 9b e3 04 3d
       -0.005944846 0.026869839 -0.022808108 0.032443624
000140 2b d6 2a bc a1 b3 fe 3c ac 88 28 3d 79 c1 83 bc
       -0.010427038 0.031091513 0.041145965 -0.016083466
000150 b3 bf 27 3d 73 7e a6 bc e5 4b fe bc 87 07 f1 bc
       0.040954303 -0.020323968 -0.031042049 -0.029422535
000160 29 a7 20 3d 9f f5 ba bb 81 9a c9 bc d7 1b 67 bc
       0.039221916 -0.00570555 -0.024609806 -0.014105759
000170 c0 44 a7 bc 2b c0 75 3c 67 6e c3 bb ae 64 ff 3c
       -0.020418525 0.01499943 -0.0059640887 0.031175938
000180 69 b0 1b 3d 3d 9e 8f ba 80 c4 ab bc 1d c7 fe bc
       0.038010035 -0.0010957193 -0.020967722 -0.031100804
000190 ac e0 0b 3d 2f ab 80 bc f0 cf 8f bc 2d cf 82 bb
       0.03414981 -0.015706627 -0.017555207 -0.0039919824
0001a0 74 e5 96 3b 94 c8 a0 bc fa c2 15 bc cd a8 25 3d
       0.0046049897 -0.019626893 -0.009140724 0.040444184
0001b0 e8 db 38 3c 95 7a 03 bd 19 af 91 bc 9f c2 19 3d
       0.0112828985 -0.032099325 -0.017783688 0.03753912
0001c0 f5 a4 29 bd 5e 4d 18 3b 6a 7f 1a bd c1 0f 2d bd
       -0.04141708 0.0023239474 -0.037719168 -0.042251352
0001d0 82 e1 8a 3c 96 6b 12 b8 34 e6 01 3d cd a2 19 3b
       0.016953234 -3.490931e-05 0.03171368 0.0023442984
0001e0 4d 00 aa bc 98 79 97 bc 37 01 f9 ba 6e 0c a9 bc
       -0.020752097 -0.018490598 -0.0018997554 -0.02063581
0001f0 67 42 75 bc 70 cd 47 bc c0 af d7 bc 99 fd f2 bc
       -0.014969445 -0.012194976 -0.026328921 -0.02966194
000200 ef 12 b7 3b fb 43 07 3d 51 63 c5 bc 36 e0 c3 3b
       0.005586974 0.033023816 -0.02409521 0.0059776558
000210 9e 1e ae bb 69 80 19 3d a8 1f c6 3c a7 0d 0e 3c
       -0.0053137084 0.037475977 0.024185017 0.008670247
000220 d1 dd 99 bc 06 69 20 3d ef 52 3a bc f3 b2 fb 3c
       -0.018782528 0.03916266 -0.011372312 0.030724978
000230 2f 31 00 bc 84 65 e9 bc af 65 f7 3b fe 7f 1f bd
       -0.007824226 -0.02849079 0.0075499634 -0.038940422
000240 d9 b6 e1 3c 29 15 c0 bb ed 02 06 bd 9a 6c 8d 3b
       0.027553009 -0.0058618975 -0.032717634 0.004315925
000250 87 e1 8e 3c 13 6e 0a 3c 77 04 b6 3a 7e 2e a4 bc
       0.017441524 0.008449095 0.0013886829 -0.0200417
000260 5d 6b f8 3c 25 25 7a bc e2 60 29 3c a4 aa 21 bc
       0.030324632 -0.015267645 0.01033804 -0.009867344
000270 16 8a 0d bd 0f 3e ff 3c 0f 70 ff 3c 40 ef 40 3c
       -0.034555517 0.031157522 0.031181363 0.011775792
000280 27 10 01 bd c7 f3 99 bc 4e 0d 06 bd 93 59 cb 3c
       -0.031509545 -0.018793 -0.032727532 0.024822986
000290 51 12 0c bd 40 85 fe 3c 6c 6b 03 bd 53 3f 10 3d
       -0.034197155 0.031069398 -0.032084867 0.03521664
0002a0 15 c4 90 3c 52 81 85 bc 32 9a 69 bc 65 4a c4 bb
       0.017671624 -0.016297016 -0.014257954 -0.005990314
0002b0 88 91 87 bc 09 3f 95 3c e0 81 0a 3d 9c 8d 3b bc
       -0.016548887 0.018218534 0.033815265 -0.0114473365
0002c0 68 eb 3d bb 34 3e be 3c 94 64 64 bc fb 96 a9 bb
       -0.0028979424 0.02322302 -0.013939995 -0.005175469
0002d0 69 44 af 3c 94 62 29 bc 16 eb d8 3c 08 60 e2 bc
       0.021394925 -0.010338444 0.026479285 -0.027633682
0002e0 89 8c 8d 3c ac 05 ab bc b8 96 15 3d 01 d1 aa bc
       0.017278926 -0.020876728 0.03652069 -0.020851614
0002f0 a9 51 bf 3c 05 da a1 3c db f5 c5 bc 46 ed 05 bd
       0.023354368 0.01975728 -0.024165085 -0.032696985
000300 df 4a 24 bd de ed 0a 3d 4b 3d d3 bb 78 ce 0c bd
       -0.040110465 0.033918254 -0.0064465157 -0.03437659
000310 86 17 ef 39 89 46 09 bd c1 64 84 3b b6 2b 26 bd
       0.0004560316 -0.033514533 0.004040331 -0.04056903
000320 de f1 19 3d 7c e2 d3 3c ee 9e 9f bc 3b fe 6e bc
       0.03758418 0.025864832 -0.019484963 -0.01458698
000330 5b e0 25 3d df ed 06 bd 2c c1 b7 bc 8d 2a 46 ba
       0.040497165 -0.032941695 -0.022430979 -0.0007559441
000340 42 c8 b3 3a 2e cc fc 38 4d 35 1a bd a9 e7 9b bc
       0.0013716298 0.00012054328 -0.037648488 -0.019031363
000350 17 b9 18 3d 60 ee 9a bc ba 18 91 bc 65 83 c6 3c
       0.03728589 -0.018912494 -0.017711986 0.024232576
000360 8d ec 07 bd 34 30 03 3c 48 1e d5 3b 7a c5 80 bc
       -0.033184577 0.008007098 0.006503854 -0.015719164
000370 ec b8 86 bb 75 3f 24 3d 95 8e 93 bb 81 dc 3a 3c
       -0.0041114 0.04009958 -0.004503081 0.011405111
000380 fc da 57 3a 1a a1 1c 3d a6 4a ef 3b b1 3e e5 3c
       0.00082342303 0.038239576 0.0073026 0.027983995
000390 3d 0a a3 bc 03 90 da 3c 5b 61 d0 bc de 34 1f bc
       -0.019902343 0.026679998 -0.025437048 -0.009717194
0003a0 09 db 49 3c 7d 41 37 bc 57 77 42 3b 20 1a 87 bc
       0.012320288 -0.011185047 0.0029673183 -0.01649195
0003b0 f7 52 8c bb a5 49 ad 3b 22 99 05 3d 5d 07 f2 3c
       -0.004282351 0.00528832 0.032616742 0.029544527
0003c0 38 c2 3b 3c 1b 0c 7e 3c f1 71 eb bc 06 e7 04 3d
       0.01145988 0.015505816 -0.028740855 0.032446884
0003d0 03 ea 4b bb 55 fd 08 bd 0a 2e 17 3c 4b eb 13 bc
       -0.0031114824 -0.03344472 0.009227285 -0.009028266
0003e0 2a cd 96 3c 42 16 c0 3c d2 84 aa bc f8 5e 7d 3c
       0.018408377 0.023448113 -0.020815287 0.015464537
0003f0 59 0c db bc a5 cd 33 bc dd ea c8 3c d3 4e da bc
       -0.026739286 -0.010974322 0.024526054 -0.026648914

weight f4 [64]
000000 06 a8 7f 3f 0a bc 7f 3f 48 90 7f 3f 25 9b 7f 3f
       0.9986576 0.998963 0.9982953 0.99846107
000010 a5 a6 7f 3f b2 61 7f 3f 98 97 7f 3f 7e 4f 7f 3f
       0.99863654 0.99758446 0.9984069 0.9973067
000020 c9 77 7f 3f 76 84 7f 3f b3 67 7f 3f 09 8b 7f 3f
       0.9979215 0.99811494 0.9976761 0.99821526
000030 aa 9c 7f 3f b0 a1 7f 3f ac 89 7f 3f 63 7a 7f 3f
       0.99848425 0.9985609 0.99819446 0.9979612
000040 44 98 7f 3f 25 8a 7f 3f f3 7d 7f 3f cc 9e 7f 3f
       0.99841714 0.99820167 0.9980156 0.9985168
000050 49 5b 7f 3f c8 93 7f 3f 1d 7b 7f 3f 67 a4 7f 3f
       0.99748665 0.9983487 0.9979723 0.99860233
000060 93 97 7f 3f e9 73 7f 3f ae 83 7f 3f ec 9a 7f 3f
       0.9984066 0.9978624 0.998103 0.9984577
000070 b4 97 7f 3f d1 68 7f 3f 39 cd 7f 3f 9e b7 7f 3f
       0.99840856 0.9976931 0.9992252 0.9988955
000080 ec b5 7f 3f f3 a9 7f 3f 43 a2 7f 3f 4a 82 7f 3f
       0.99886966 0.99868697 0.99856967 0.9980818
000090 33 b8 7f 3f f7 b2 7f 3f 83 92 7f 3f 15 b0 7f 3f
       0.9989044 0.99882454 0.99832934 0.99878055
0000a0 67 9b 7f 3f 4a aa 7f 3f c8 92 7f 3f 8b 5c 7f 3f
       0.998465 0.99869215 0.99833345 0.99750584
0000b0 c3 93 7f 3f 97 99 7f 3f cf d1 7f 3f 73 87 7f 3f
       0.9983484 0.99843735 0.9992952 0.99816054
0000c0 a5 a0 7f 3f 26 a7 7f 3f 3e 5a 7f 3f 2e b8 7f 3f
       0.998545 0.99864423 0.99747074 0.9989041
0000d0 5c 74 7f 3f 12 c9 7f 3f bd b4 7f 3f 99 8c 7f 3f
       0.99786925 0.99916184 0.9988516 0.9982391
0000e0 6f 42 7f 3f f4 b8 7f 3f 2e 90 7f 3f 2c 5c 7f 3f
       0.99710745 0.9989159 0.99829376 0.9975002
0000f0 db ab 7f 3f e5 cc 7f 3f ee 7f 7f 3f ca 70 7f 3f
       0.99871606 0.9992202 0.9980458 0.9978148

bias f4 [64]
000000 73 67 b8 ba 97 72 e8 ba 01 77 04 bb 39 68 15 bb
       -0.0014068916 -0.0017734346 -0.0020212533 -0.0022797717
000010 39 e7 e4 ba f1 8b 15 bb ac 1b 07 bb 79 3a 47 bb
       -0.0017463929 -0.0022819007 -0.002061586 -0.0030399843
000020 c8 c7 21 bb 83 6f 13 bb af 99 17 bb 69 c1 0b bb
       -0.002468573 -0.0022496886 -0.0023132374 -0.0021324998
000030 58 c5 f6 ba c7 54 bc ba 49 5b fd ba bc 79 0e bb
       -0.0018827124 -0.0014368527 -0.0019329573 -0.002174004
000040 67 60 f3 ba fe cd 16 bb 1b 22 fe ba 91 79 ed ba
       -0.0018568159 -0.0023010965 -0.0019388826 -0.0018117895
000050 bc 93 29 bb af f7 e0 ba cf 10 eb ba 14 ec c5 ba
       -0.002587541 -0.0017163659 -0.0017934086 -0.0015100264
000060 7a a7 d1 ba a2 e7 df ba 53 e5 04 bb 1a 1d c4 ba
       -0.0015995346 -0.0017082582 -0.002027829 -0.0014962286
000070 e1 d9 bb ba 81 91 d8 ba b1 85 82 ba d3 6b 8a ba
       -0.0014331901 -0.0016522856 -0.0009958056 -0.0010560699
000080 14 6d b5 ba e9 d2 cf ba d9 f0 e0 ba df eb e1 ba
       -0.0013841712 -0.0015855703 -0.0017161622 -0.0017236433
000090 6f cf b0 ba c2 85 93 ba 3f 26 e4 ba 7b 35 bb ba
       -0.0013489554 -0.0011255073 -0.0017406418 -0.0014282906
0000a0 63 1e dd ba 5c a5 c7 ba 1f 84 0c bb a3 a4 1b bb
       -0.0016870018 -0.0015231776 -0.0021441055 -0.0023749254
0000b0 cf 57 ca ba 73 55 f7 ba 4c f2 84 ba 4b 76 e9 ba
       -0.0015437546 -0.001887007 -0.0010143011 -0.0017811743
0000c0 3a 5c c0 ba 63 ab c4 ba b5 11 2a bb 7c 7b b1 ba
       -0.0014675923 -0.001500469 -0.0025950496 -0.001354083
0000d0 a1 d2 9c ba a2 f7 db ba 63 f9 ca ba ae b4 19 bb
       -0.0011964628 -0.0016782174 -0.00154857 -0.002345364
0000e0 4b d1 3c bb 0a f8 8e ba 3d b8 07 bb 6e d6 19 bb
       -0.0028811272 -0.0010907662 -0.002070918 -0.0023473757
0000f0 d7 5f b8 ba f5 04 d2 ba cd a0 15 bb 76 1e 02 bb
       -0.0014066648 -0.0016023206 -0.002283144 -0.0019854582

running_mean f4 [64]
000000 93 46 e0 be 46 98 27 3f 6d 37 94 3e a7 1d 8f 3e
       -0.43803844 0.65466726 0.28948537 0.2795231
000010 20 eb 8b 3f 34 ec 45 3d 6d 4f 34 be ee 32 71 3e
       1.093113 0.048320964 -0.17608424 0.23554584
000020 06 c8 bc 3d c7 bc 1f 3f 3d bc fc be 20 9d 9d bd
       0.09217839 0.62397426 -0.49362364 -0.07695985
000030 cf 8f e5 be 1e 91 ce be 0a 5b 84 3e 66 f8 7b be
       -0.4483628 -0.4034509 0.25850707 -0.24606475
000040 b8 f0 0c be f6 f8 a5 be d9 96 8b be 9d 40 a4 3d
       -0.13763702 -0.32416505 -0.27263525 0.080201365
000050 c4 e0 29 bf af 42 91 be 03 7d 13 3e 9e a1 60 bf
       -0.6635859 -0.28371188 0.14403157 -0.8774661
000060 36 54 0c bf 17 a0 9b be 2c b6 54 bf 18 f4 05 3e
       -0.54815996 -0.30395576 -0.8309047 0.13081396
000070 de e8 ee be 63 a1 27 3e 67 87 f4 3e 13 21 40 3f
       -0.4666204 0.16370158 0.47759554 0.7505047
000080 7b 5a bd 3e 5c b9 c4 3e 24 7e ca be e9 ec 30 be
       0.36983094 0.38422668 -0.39549363 -0.17277874
000090 0d 6f 5f 3e 4c ec fa be 9b 4f b5 3c 80 be bd 3e
       0.21819706 -0.49008405 0.022132685 0.37059402
0000a0 25 75 f4 3e cd 76 7d bd 8d 91 9a 3e cc 7d 4c be
       0.47745624 -0.061880875 0.3018917 -0.19969863
0000b0 65 8b 33 be 5c 9e af bd b5 18 2b 3e 12 42 ff 3e
       -0.17533644 -0.085751265 0.16708644 0.49855095
0000c0 80 f8 4c be 2a 3e a3 bc d3 a6 8b 3e 50 db c3 bc
       -0.2001667 -0.019927103 0.27275714 -0.023908287
0000d0 70 87 10 bf 04 8b 08 3f 3a b7 d1 be a0 84 e3 3d
       -0.5645666 0.5333712 -0.40960103 0.111092806
0000e0 9c 6e 6c be 75 39 89 3f 2c c7 e3 3e c9 c7 a2 be
       -0.23089069 1.072066 0.44487894 -0.3179305
0000f0 22 cc d0 3e 08 0c be 3d a3 2a 1d bf ce de 89 bd
       0.4078074 0.092796385 -0.61393183 -0.0673195

running_var f4 [64]
000000 13 e9 6c 3e 36 a4 4b 3e 7f 61 36 3e d7 42 b2 3e
       0.23135786 0.1988686 0.1781063 0.3481662
000010 ea 61 e5 3e 36 e2 46 3e 13 10 2b 3e 06 22 80 3e
       0.44801265 0.1942223 0.1670535 0.25025958
000020 16 8d 64 3e b8 d9 74 3e f8 8a 10 3e ec b1 84 3e
       0.22319445 0.23911178 0.14115512 0.25916994
000030 e0 53 23 3e 95 47 3a 3e dc 12 36 3e 02 41 78 3e
       0.15949965 0.18191369 0.17780632 0.24243549
000040 83 a5 3e 3e 1c 15 7d 3e 3e 22 07 3e 4b 07 0f 3e
       0.18617825 0.24715084 0.13196656 0.13967626
000050 5d 76 80 3e c5 e2 c5 3e c2 54 4d 3e fd 71 5d 3e
       0.25090304 0.38649574 0.20051864 0.21625514
000060 4f b0 7b 3e 9e fa 80 3e fa 2d 96 3e f4 03 21 3e
       0.24578975 0.25191206 0.29331952 0.15724164
000070 56 3a 8c 3e 69 43 24 3e 75 d3 26 3e fe 76 aa 3e
       0.27388257 0.1604134 0.16291602 0.3329391
000080 93 fb bd 3e bb b5 9a 3e e8 12 97 3e ee 24 5c 3e
       0.37105998 0.30216774 0.29506612 0.21498463
000090 d9 11 af 3e cd e6 1e 3e fa e6 84 3e bc b1 2f 3e
       0.34193304 0.15517731 0.2595747 0.17157644
0000a0 13 23 a7 3e 5f a1 1f 3e c5 02 42 3e a0 3a 61 3e
       0.32643947 0.15588902 0.18946369 0.2199502
0000b0 e9 68 47 3e 05 2b a5 3e fb 06 e1 3e 99 76 41 3e
       0.19473614 0.32259384 0.43950638 0.18892898
0000c0 a1 07 b7 3e ad 43 cc 3e da 19 d2 3d 88 51 1d 3e
       0.35748008 0.39895383 0.10258837 0.15363133
0000d0 49 68 af 3e e6 6f 6e 3e ad aa 80 3e e5 18 0e 3e
       0.3425925 0.23284873 0.25130215 0.13876684
0000e0 be 48 3c 3e f6 42 95 3e 2c e5 9d 3e a7 95 c0 3e
       0.18387124 0.2915265 0.30838907 0.37614176
0000f0 d1 9f 98 3e 2f 90 05 3e 3d bf c9 3e 73 ca 56 3e
       0.2980943 0.13043283 0.39403716 0.20975666

weight f4 [5, 16384]
000000 db 17 d9 ba f0 d4 1d 3b 8e 13 de 3b 80 10 04 3b
       -0.0016562896 0.002408322 0.0067772334 0.0020151436
000010 3e 2a 96 ba d5 fc 81 3b 47 16 84 3b be 08 bc b9
       -0.0011456681 0.0039669075 0.004030976 -0.00035864668
000020 a6 8c d4 3b a7 9a eb ba 7b cc 95 bb 1e ef 85 3b
       0.006486493 -0.0017975167 -0.004571495 0.004087343
000030 d0 f9 e8 bb dd be 74 3a 32 ff 94 bb f7 f6 d5 3b
       -0.007109858 0.0009336302 -0.004547023 0.0065296846
000040 e6 07 01 bc 3b ba fd ba 2c f6 a1 bb 4d 94 c0 ba
       -0.007875418 -0.0019357869 -0.004942676 -0.0014692635
000050 49 8f 98 bb db f1 75 3b d0 cf 29 bb 4f 54 91 bb
       -0.004655753 0.003752819 -0.002591122 -0.004435099
000060 7b 5f ec 3a 4c 13 e9 bb 8d 1a 76 bb bd cb d8 3b
       0.0018033826 -0.007112896 -0.0037552447 0.0066160844
000070 83 23 72 bb 57 45 3b bb f0 c4 2e 3b 95 1e d5 3b
       -0.0036947436 -0.0028575265 0.0026667677 0.00650389
000080 1e e8 cb bb ce 07 57 3b e1 83 62 bb 04 9b b5 b8
       -0.006222739 0.0032811048 -0.003456347 -8.6596265e-05
000090 c1 62 13 3b bf c3 0d 3a ad 53 c7 38 19 96 c9 b9
       0.0022489282 0.00054078916 9.504645e-05 -0.0003844954
0000a0 57 09 3b 3b e0 14 9e ba 93 2a c6 3b 99 fc f0 39
       0.0028539503 -0.0012060665 0.0060475557 0.00045964567
0000b0 ce 7b 4e 3b 88 a5 a2 bb 85 fc bf bb 1c ce f1 bb
       0.0031506899 -0.0049635805 -0.00585896 -0.0073793065
0000c0 f5 0d 8d 3b 6e ef 33 ba eb 70 19 3b 21 28 79 3b
       0.0043046423 -0.0006863986 0.0023413252 0.0038018303
0000d0 7d 12 61 bb 11 8b e3 3b 7b 5f 03 3b 32 d0 48 3b
       -0.0034343295 0.0069440682 0.0020045924 0.0030641672
0000e0 31 ab 7a ba 0e b5 c6 bb a9 a2 94 bb dd 57 cb bb
       -0.00095622527 -0.006064064 -0.004535992 -0.0062055425
0000f0 67 bc c0 3b b7 e2 b3 b9 54 12 8c 3b 38 ec d4 ba
       0.0058818343 -0.00034310456 0.004274646 -0.0016244715
000100 35 83 ad bb 61 13 2a bb 32 45 a0 39 8b 46 8f 3b
       -0.005295182 -0.0025951492 0.00030569133 0.004372423
000110 f4 5f c3 3b 97 48 e9 3b e2 1d 91 3a e7 d3 8b bb
       0.0059623662 0.007119249 0.0011071528 -0.004267204
000120 e6 20 9a 3a 9e e4 91 bb 06 cf 82 ba 1d 68 2b bb
       0.0011759072 -0.004452302 -0.0009979911 -0.0026154586
000130 94 7c f0 ba 47 01 64 3b 7f b7 7e bb ee d8 a7 3b
       -0.0018347674 0.00347908 -0.0038866696 0.0051222956
000140 3c 34 78 3b e4 9d c1 3b bd fd c7 bb 75 a9 c4 bb
       0.003787293 0.0059087146 -0.006103246 -0.006001646
000150 08 da c3 bb e0 08 9c 3b 96 bc e5 bb ad 5b eb 3b
       -0.005976919 0.0047618 -0.0070110066 0.0071825595
000160 1b 36 69 3b 7c 0a 88 3b 62 26 ea 3b e7 92 69 3a
       0.0035585228 0.0041516405 0.007145689 0.0008910135
000170 d2 08 21 3b ca 3b cb 3b ec a8 c5 bb e2 2d 06 bc
       0.0024571908 0.006202196 -0.0060321 -0.00818965
000180 50 50 3f b9 2b 42 b1 ba 5e aa 85 3a 33 b5 6c 3b
       -0.00018245098 -0.0013523748 0.0010197868 0.0036118745
000190 e2 9d a0 3b b9 12 ba bb 86 27 a5 ba ad 52 b1 bb
       0.0049016336 -0.0056785014 -0.001260028 -0.005411467
0001a0 4e 73 e8 ba b9 d0 ba bb 85 ec db 3b b3 27 32 39
       -0.0017734559 -0.005701151 0.006711545 0.00016990192
0001b0 eb 24 b6 3b 32 e9 e9 3a 5d 2b b6 3b 2a 4f 2f ba
       0.0055586 0.0017845987 0.0055593685 -0.00066875166
0001c0 80 86 86 ba 98 c5 f0 3b 8b aa 80 bb 47 5f 40 3b
       -0.0010263473 0.0073477738 -0.0039265803 0.0029353665
0001d0 ac 1b 31 3b 91 13 24 3a 36 4b 8f bb 01 96 5a bb
       0.002702455 0.0006259019 -0.0043729795 -0.003335357
0001e0 35 f7 ed ba 67 6c 2d 3b 12 d3 17 bb 06 e9 a5 b9
       -0.0018155338 0.0026462318 -0.002316658 -0.00031644868
0001f0 29 85 5a bb d1 23 c9 3b 9d a5 c6 3b 5c 07 ed bb
       -0.003334353 0.006138303 0.006062223 -0.0072335433
000200 77 5a 65 bb 9a ac 0d bb 29 b4 d3 bb 39 69 cc 3b
       -0.0034996548 -0.002161777 -0.0064606857 0.0062381295
000210 cf d0 6b 3b b1 c8 f1 3b 66 e3 fc 3b 4c 58 68 bb
       0.0035982614 0.0073786606 0.0077175377 -0.003545302
000220 f8 63 d5 3b a9 7a 25 bb 18 ed d8 bb d5 17 00 3c
       0.0065121613 -0.0025250113 -0.0066200607 0.007818182
000230 9f da ac bb 72 92 11 39 9c e6 d3 bb 27 38 36 3a
       -0.005275085 0.00013882833 -0.0064666998 0.00069511164
000240 28 3b 9f bb 8b 97 fd ba e7 5f d0 bb 86 6d 85 3b
       -0.004859347 -0.0019347531 -0.0063590887 0.004071894
000250 c0 4f c5 3b 0f 79 e2 ba 43 32 d8 ba 0a c2 7e ba
       0.00602147 -0.001727851 -0.0016494471 -0.0009718245
000260 69 18 ff bb f6 dd dc 39 cd e5 e5 3b ca 08 2f bb
       -0.0077848923 0.00042127044 0.00701592 -0.002670812
000270 c0 cb d4 3a 44 d2 83 3a 5a c1 39 3b 5c cf 93 bb
       0.0016235039 0.0010057171 0.0028344006 -0.004510803
000280 d7 a1 0d b9 70 e1 e9 3a a4 a6 83 3b f3 19 b7 3b
       -0.00013507098 0.0017843675 0.004017668 0.00558781
000290 c2 49 d6 3b d8 56 f3 bb 66 30 9b bb aa 84 7a 3b
       0.0065395543 -0.007426124 -0.004735994 0.0038226047
0002a0 e8 c9 7e bb 1c 6d c0 3b 8e 6c c1 3b 01 93 72 3b
       -0.003887767 0.005872382 0.0059028333 0.003701389
0002b0 db 66 d2 bb 66 b4 62 3b c3 e7 d4 3b 89 30 4e bb
       -0.0064209527 0.003459239 0.0064973547 -0.0031462035
0002c0 cb 79 b7 3b 65 80 78 bb 2f 38 ed bb 18 03 c9 3b
       0.0055992357 -0.0037918326 -0.0072393636 0.006134402
0002d0 42 d5 f5 bb 45 2b da 3b 02 6e 96 bb 32 53 50 bb
       -0.007502229 0.00665799 -0.0045907507 -0.003178787
0002e0 33 49 eb bb 9f 8e 52 3b 21 a0 9f 3b 90 f6 f7 b9
       -0.007180357 0.0032128466 0.004871384 -0.00047295215
0002f0 99 1d 19 ba cc 5f cf 3b d2 6d 5e 3a 32 c0 ca 3b
       -0.0005840897 0.0063285585 0.00084849924 0.0061874622
000300 46 6c 44 3b 4b bc ef bb d6 98 cd 3b 1d 67 ac 3b
       0.0029971763 -0.0073161474 0.006274323 0.0052613155
000310 91 1d 75 bb 46 09 21 3b 5c a3 0d 3b 2d f4 0c 3b
       -0.0037401656 0.0024572178 0.0021612262 0.0021507845
000320 99 9f 80 3b 53 da 12 bb 9d 96 f9 bb a5 fe c6 3a
       0.0039252755 -0.0022407963 -0.0076168315 0.0015182091
000330 5d 24 2f bb 04 17 15 bb 50 bd 37 bb b9 b2 dc 3b
       -0.0026724555 -0.0022749314 -0.0028036423 0.0067351726
000340 33 50 08 bb a4 8f 87 3a 0f 72 90 3b ec 36 df bb
       -0.0020799756 0.0010342491 0.004408128 -0.006811967
000350 6a 27 8f bb f4 1e c2 bb 49 c4 7c bb c4 1a ae 3b
       -0.004368712 -0.0059241 -0.0038569144 0.0053132493
000360 c9 68 d8 3b 23 3c 82 3b f6 18 ec bb 93 43 1e 3a
       0.0066042882 0.003974454 -0.007205124 0.0006037291
000370 ce 96 11 ba c8 32 2c 39 13 c4 08 bc 17 5e d9 bb
       -0.00055537827 0.00016422116 -0.008347529 -0.006633531
000380 db 90 ea bb ae 4a d4 3b 8a b1 e1 3b 4d cc d7 bb
       -0.0071583814 0.006478629 0.0068876194 -0.006585634
000390 b0 7d c7 3b eb 3c 2f 3b ad 21 cb ba c4 0d b4 3b
       0.006087981 0.002673919 -0.0015497707 0.005494805
0003a0 38 c5 b7 3b 0a 2b 08 bc b1 3d 6d bb d8 eb 6d 3b
       0.005608227 -0.008311043 -0.00362001 0.0036303904
0003b0 38 3d 13 3a d0 64 9c bb 48 60 34 bb 9b 46 9e bb
       0.0005616727 -0.00477276 -0.0027523208 -0.004830194
0003c0 fc ff 2a 39 4e b0 c6 3b 91 bd 46 bb 9b 5d 68 3b
       0.00016307825 0.0060634976 -0.0030325393 0.0035456184
0003d0 ea a6 84 bb 9c 57 82 bb d3 cc 8c 3b a8 3c d1 bb
       -0.004048218 -0.003977729 0.004296878 -0.0063854046
0003e0 f8 89 9f bb 1a df 8f bb e6 20 e9 3b 40 07 45 ba
       -0.004868742 -0.0043906095 0.0071145175 -0.0007516034
0003f0 72 c1 b0 3b 7a bc 06 bb a8 10 38 bb c5 fa 82 b9
       0.005394154 -0.0020559118 -0.00280861 -0.0002498237

bias f4 [5]
000000 b9 dd 5e 3b 0b 1e 83 ba 70 ed c0 3b d9 68 6f 3a
       0.0034006669 -0.001000346 0.0058876798 0.000913275
000010 af 62 85 3b
       0.004070602
